sample_ekyc/sdk_ekyc/ekyc_flutter_sdk-native_ai_flow/tmp_assets/models/Faceliveness_mobilenetv2_0.25_mymodel_5_04032022.tflite (tflite, 989468 bytes, 108 tensors)

model/normalization/truediv;model/normalization/Sqrt f4 [1, 1, 1, 3]
000000 f3 04 b5 3f f3 04 b5 3f f3 04 b5 3f
       1.4142135 1.4142135 1.4142135

model/normalization/sub/y f4 [1, 1, 1, 3]
000000 00 00 00 3f 00 00 00 3f 00 00 00 3f
       0.5 0.5 0.5

model/dense/BiasAdd/ReadVariableOp/resource f4 [5]
000000 9e 49 86 3c 16 6d ab bc d2 da 13 bd af 5c 28 bd
       0.016392525 -0.02092604 -0.036097355 -0.041104015
000010 f7 58 fa 3c
       0.03056

model/Conv_1_bn/FusedBatchNormV3 f4 [1280]
000000 5f 3b 7b ba 53 bf 8a 3b 0f 0d 4b ba fc 5d 1f 3a
       -0.0009583737 0.0042342334 -0.00077457813 0.00060793734
000010 63 ca 37 3b 65 59 b7 3b dc f0 5e 3b d8 6d d9 3a
       0.0028044216 0.0055953735 0.0034018075 0.0016588522
000020 5f 00 e2 3b 38 e5 9e b9 ad 57 8d 3b 65 10 a6 3a
       0.006897017 -0.0003030689 0.0043134303 0.0012669681
000030 1e 37 99 3b 57 7f ad 39 74 0c 24 3b d7 90 cb 3a
       0.00467576 0.00033092007 0.0025031837 0.0015530837
000040 1d ca d1 b5 1c 43 c2 ba 82 9e 11 3b 1c 02 2a bb
       -1.5630536e-06 -0.0014821026 0.0022219722 -0.0025941199
000050 48 78 f9 ba 18 1c e7 ba 46 6b 0f 3b 21 d6 43 3a
       -0.0019033039 -0.0017632274 0.0021884008 0.00074705674
000060 49 30 d4 3b d7 3b 2c bb 39 93 14 3a 3d 61 0e 3a
       0.0064754826 -0.0026280785 0.000566769 0.000543136
000070 06 a5 00 3a f4 fe 8e b9 ac e8 8c ba 32 de a0 3a
       0.0004907403 -0.00027274305 -0.0010750494 0.0012273251
000080 26 2f ec 3a df d6 bf 38 82 2d 23 bb b6 c9 6f 3a
       0.0018019422 9.1476126e-05 -0.002489895 0.0009147184
000090 da 6d 2a 3b 0f be 8c 3b ca 0a ee 3a 98 cf 1a 38
       0.0026005418 0.0042951177 0.0018161174 3.6909798e-05
0000a0 a9 56 ab 3a 22 05 25 bb a3 b3 60 3b bf cc 44 3b
       0.0013072091 -0.0025180061 0.003428676 0.0030029265
0000b0 97 d4 06 3b cf 31 7f 3b 85 01 fc 39 59 b3 16 3b
       0.002057349 0.00389396 0.00048066318 0.0022995083
0000c0 ed 3d e2 ba ee e9 05 bb 3d f4 05 3b 48 96 c8 3b
       -0.0017260887 -0.0020433622 0.0020439767 0.0061214305
0000d0 d9 c1 6e 3b 8b 13 8d ba d7 d7 d9 3b 12 a4 8d 3a
       0.003643146 -0.001076327 0.0066480446 0.0010806343
0000e0 35 29 0a 3b 0a 28 08 bb d4 db 37 3b bd 8f c5 3b
       0.002108169 -0.0020775818 0.0028054612 0.006029098
0000f0 5e c3 e3 3a 9a 84 9f ba 19 cf 0a bb b7 23 cf 3a
       0.001737695 -0.0012170256 -0.0021180569 0.001580349
000100 a4 51 6c 3b a9 08 55 ba 8a 04 76 3a ed 9a 25 3b
       0.0036059404 -0.00081265956 0.00093848316 0.0025269345
000110 27 97 c1 3b 39 98 73 b8 a0 2b 26 bb 7e b5 08 3a
       0.0059079113 -5.8077483e-05 -0.0025355592 0.0005215033
000120 be 5f f2 3b a1 ec 37 ba 0a 3a 62 3b e5 7e 6a 3a
       0.0073966673 -0.00070161565 0.0034519457 0.00089453004
000130 71 ca b7 39 de 94 84 ba f1 a0 48 3b 7b 23 bf ba
       0.0003505531 -0.0010115167 0.0030613507 -0.0014582718
000140 d8 90 39 3a 1b 76 af 3b 5f e9 e0 37 a8 67 ab b8
       0.00070787733 0.0053546554 2.6811553e-05 -8.173223e-05
000150 85 ad ec ba 1d 56 f6 3a 58 19 28 3b 55 d2 81 3a
       -0.0018057084 0.0018793974 0.0025649872 0.0009904603
000160 44 45 19 3c 77 eb ac 3b af 2a 8a ba 6a d0 8b 3b
       0.009354893 0.005277093 -0.0010541285 0.0042667883
000170 56 e9 7f b8 b1 05 b4 3b 1a 22 af ba 67 dd 16 3b
       -6.101405e-05 0.0054938425 -0.0013361603 0.002302015
000180 60 46 03 3c ef 73 80 3b f4 8b 1c 3a 06 0e 5c 3b
       0.008012384 0.0039200704 0.00059717824 0.0033577695
000190 11 cc 17 3c df b8 23 3a 1f 70 71 3b 50 73 58 3b
       0.009264962 0.00062455045 0.003684051 0.0033027716
0001a0 bc 5d 26 3a 32 94 4b 3b f4 6d 17 3b 3d 98 06 3b
       0.0006346365 0.0031063673 0.0023106309 0.0020537518
0001b0 37 e5 82 3b 7d 1c a4 3b e9 16 1a 3b ce 38 39 3b
       0.0039946097 0.005008279 0.002351219 0.0028262618
0001c0 08 3c 38 3a 42 69 81 ba d5 5a a9 3a b8 60 2d 3b
       0.00070279883 -0.0009873288 0.0012920747 0.0026455354
0001d0 54 07 a4 3b 58 9f 02 3b 3b 78 f1 3a 8f e5 ac b9
       0.0050057564 0.0019931402 0.0018422672 -0.0003297743
0001e0 a2 05 58 3b b5 e5 cb ba 1f 6b 29 3b 11 0b 8a 38
       0.0032962342 -0.0015556129 0.0025851203 6.582414e-05
0001f0 0d a2 26 3a c8 98 00 3c c1 82 0c 3b e1 c6 e4 ba
       0.0006356545 0.007848926 0.002144024 -0.001745429
000200 98 0f 99 3b e3 54 87 3b 58 80 bb 3a 5b bd 86 3b
       0.0046710484 0.0041299923 0.0014305217 0.0041119284
000210 8d 82 9c b9 ae 4e 23 bb 88 11 8c 3a e1 29 eb 3a
       -0.00029851907 -0.0024918723 0.0010686377 0.0017941558
000220 57 cb ef b8 d2 81 5f 3a 0a a1 51 3b 8d c9 53 bb
       -0.00011434283 0.00085261196 0.0031986856 -0.0032316179
000230 a1 01 45 ba 09 91 ca b8 a2 9b a0 38 43 2e 8d 3b
       -0.00075151963 -9.6591255e-05 7.6583834e-05 0.0043084933
000240 22 38 ff 3a c4 45 a4 39 b0 6d cb 3b ce e0 57 3a
       0.0019471685 0.00031332497 0.006208144 0.00082350976
000250 1d 2b 7a 38 35 f2 11 ba ee 13 b6 3a 06 78 28 3b
       5.9644797e-05 -0.00055674027 0.0013891438 0.0025706305
000260 32 d0 65 3a ac 6b c3 3b d8 0f ad 3a f7 f4 f2 39
       0.000876668 0.005963763 0.0013203574 0.0004634035
000270 57 79 cc ba a6 ba 2c 3a d1 47 96 3a 5d 26 d6 3b
       -0.0015600127 0.0006589092 0.0011465495 0.006535335
000280 63 01 8e 3b 89 af 9d 39 bb 24 d6 3a 5f 2d 47 3b
       0.0043336614 0.00030076157 0.0016337851 0.0030392034
000290 b9 8d 35 3b c9 2c a9 3a 32 5f d4 3a 29 43 f3 3b
       0.0027702881 0.0012907024 0.0016202687 0.0074237776
0002a0 a4 bf 15 bb 6e 39 f6 ba 5a 95 b7 3a 8e 11 0d 3b
       -0.0022849822 -0.0018785426 0.0014006302 0.0021525356
0002b0 0c 00 00 3b 84 52 18 3b 09 81 22 bb b3 a0 1a ba
       0.0019531278 0.0023242543 -0.002479615 -0.000589858
0002c0 aa 15 78 3b ad 58 83 3a c9 d9 2e bb df af 58 3b
       0.003785471 0.0010020934 -0.0026680103 0.0033063812
0002d0 8f 23 0f 3a a2 4d bc 3a 45 82 4d 3b d0 34 f8 3a
       0.0005460316 0.0014366398 0.0031358164 0.0018936638
0002e0 db d1 2d 3c 97 bd 73 38 6c ce 03 3c f9 7e 51 ba
       0.0106091155 5.8112284e-05 0.00804482 -0.00079916377
0002f0 d6 23 b1 3b ad 1a 4a 3b 43 78 8c ba 54 f8 d5 3b
       0.0054058833 0.0030838654 -0.0010716993 0.006529847
000300 68 f2 6f 3b 43 6c 97 3b a0 78 e2 ba e9 8d ae 3a
       0.0036612991 0.00462106 -0.0017278381 0.0013317439
000310 36 74 ab 3b e2 50 a7 3b 4d 63 d1 3a 1c 62 b4 39
       0.0052323593 0.0051060775 0.0015975029 0.00034405373
000320 d0 3c a0 38 a4 54 6d 3b 23 4e c8 3a bf f1 28 3b
       7.640722e-05 0.003621378 0.0015282076 0.0025778858
000330 b0 0c 2a ba 92 cd b9 38 9a 3a d4 3a 5b cb a3 ba
       -0.0006486876 8.859778e-05 0.0016191781 -0.0012496518
000340 1b 6d aa 3b 86 cb 9b 3b b0 d2 ef 3a f2 49 d5 3a
       0.0052009947 0.0047544865 0.0018297043 0.0016272648
000350 65 23 11 3b d0 1c 7e 3b 0c 24 26 3a 57 04 01 bb
       0.002214634 0.0038774498 0.0006337769 -0.0019686425
000360 6b 67 f1 39 b0 5f 36 ba 39 96 2b 3b f7 cc 1e 3b
       0.00046044154 -0.00069570076 0.002618207 0.0024231055
000370 b9 ed c0 3a 24 32 a4 3a ce be ca 3b db 86 cf 3a
       0.0014719284 0.001252715 0.0061872965 0.0015833037
000380 b6 d8 34 3b 8d d6 1e 3a 6b f9 82 b6 a7 aa 8b 3a
       0.002759499 0.0006059192 -3.903338e-06 0.0010655717
000390 ff 76 26 3b f8 ba 80 b8 4d 87 0c ba 8a 5b a2 3b
       0.0025400517 -6.138341e-05 -0.00053607376 0.00495476
0003a0 25 ee 4c 3b 3d b8 b5 3a 61 ca 0e 3b 3e 87 dd b9
       0.0031269875 0.0013864111 0.0021788108 -0.00042253168
0003b0 e3 aa 37 3b 4e b3 0f 3b 08 4a ce 3b c1 28 80 39
       0.002802544 0.0021926942 0.0062954463 0.00024444427
0003c0 33 61 0c 3b b3 1b 8f 3b 7e 75 01 ba a8 d0 5a ba
       0.002142024 0.0043673157 -0.0004938467 -0.0008347132
0003d0 73 3f bd b9 a4 f6 73 ba b5 dd 40 3b 98 e8 38 3b
       -0.00036096163 -0.00093064667 0.0029429023 0.0028214809
0003e0 6b 63 71 3b 6c 56 35 3a 15 2d ef ba ee 59 c1 3b
       0.003683294 0.000691748 -0.0018247688 0.005900613
0003f0 09 88 29 ba 56 1f 8b 3b af 09 ba b9 bb 38 a8 3b
       -0.0006467109 0.004245679 -0.000354839 0.005133716

model/block_10_depthwise_BN/FusedBatchNormV3 f4 [96]
000000 ec b4 f1 bc a2 37 d4 3d 59 69 63 be 48 91 0c bf
       -0.029505216 0.103621736 -0.22208156 -0.5490918
000010 1a e2 04 3f e6 b7 26 3f f3 17 d9 bd e4 da ad bc
       0.51907504 0.65124357 -0.10600271 -0.02122254
000020 f0 b1 91 bd 8b 62 8a be 07 ae 15 be 41 5a 8d bf
       -0.07114017 -0.27028307 -0.14617167 -1.1043168
000030 ff 4d 44 3f 72 bd 96 be a3 71 0c bf f2 45 51 bf
       0.7668151 -0.2944141 -0.54860896 -0.81747353
000040 a0 c0 ac be 3e 06 e6 bd 7e 96 15 bf e1 c3 63 bf
       -0.3374071 -0.11231659 -0.5843276 -0.8897076
000050 64 18 06 bf 4f 45 96 3e 23 28 6b 3f 4c 12 2f 3d
       -0.5238097 0.29349753 0.9185812 0.04274206
000060 53 e8 e6 be d1 04 0b bf cb 9e c6 be fc c8 68 bf
       -0.45099124 -0.54304224 -0.38793024 -0.9093168
000070 e1 94 a3 bd 32 f0 3c 3f e8 74 e4 be cc e3 15 bf
       -0.07987381 0.7380401 -0.44620442 -0.58550715
000080 56 7e 27 3f 79 56 d4 be 06 c1 c6 be 9d 3c 89 3e
       0.6542715 -0.41472223 -0.3881914 0.26804057
000090 f1 ea 14 bf 8b b6 1f bf 32 03 37 3f c4 81 8a 3f
       -0.5817099 -0.62387913 0.7148925 1.0820851
0000a0 30 a9 82 3f 29 d2 20 bf da ab bf 3e 95 e3 ba 3e
       1.0207882 -0.6282068 0.374358 0.36501756
0000b0 4d 1a ff be 2b bc 7e bf bc 4d 39 3f 5a d3 57 3f
       -0.49824753 -0.9950587 0.7238424 0.8430687
0000c0 95 9a 70 bf 50 f4 43 3f cd 9b 35 3f a4 9d 81 be
       -0.93985873 0.76544666 0.7094086 -0.25315583
0000d0 08 64 05 3d 8c a5 06 3f 47 1c b4 3d fa bc 6c 3f
       0.0325661 0.52596354 0.08794456 0.92475855
0000e0 14 50 c3 bc fc da fc 3e ca cc a5 bb 36 c4 4e bf
       -0.023841895 0.49385822 -0.005059813 -0.80768144
0000f0 fa f3 4d 3f 27 d7 e5 be cb d1 4a 3f 75 c9 59 bf
       0.80450404 -0.4489071 0.7922637 -0.85073024
000100 41 58 89 3e 50 eb 3a bf 56 b6 7a bf 8a a0 34 3f
       0.26825145 -0.7301531 -0.9793447 0.70557463
000110 5d 71 f2 be 9c 55 43 3f 3d ca 06 3e 73 1f 47 bf
       -0.47352114 0.76302505 0.13163085 -0.7778236
000120 91 0c 27 bf d5 ed 21 bf 9f ff dd 3e be 9b 59 bf
       -0.6525355 -0.6325353 0.43359086 -0.8500327
000130 a5 5d aa be fa d1 d3 be a7 69 4f 3f 45 1d 7b 3d
       -0.3327457 -0.41371137 0.8102059 0.06130721
000140 30 87 51 3f b0 96 01 3f 25 bd 3b bf 1d 35 11 3f
       0.81846905 0.50620556 -0.73335487 0.5672167
000150 af 11 11 bf 24 cc eb 3e 62 c4 6d bf aa e8 74 3e
       -0.5666761 0.46054184 -0.9287778 0.2391688
000160 c0 ce 21 3f 38 03 6a bd 25 89 90 3e 19 8a 32 bf
       0.632061 -0.057131976 0.28229633 -0.6974197
000170 ad d4 61 3f 10 69 5a bf 8c 11 0f bf 6a 2b c9 be
       0.8821514 -0.8531656 -0.5588615 -0.39290935

model/block_10_expand_BN/FusedBatchNormV3 f4 [96]
000000 34 04 fb 3c 34 4e c5 3c cd a4 bb 3b 17 31 ee 3c
       0.030641653 0.024085142 0.005726433 0.029076142
000010 09 d5 d4 3b 46 a0 22 3d 07 59 1b 3c f0 6e 9d 3c
       0.0064951223 0.03970363 0.009481675 0.019217938
000020 ad 25 dc 3c 52 b1 86 3c 35 b5 04 3c 59 46 d9 38
       0.026873434 0.016441975 0.008099844 0.000103604696
000030 59 e2 a3 3b 88 0a 95 3a 55 ec b9 3c eb 02 a0 3c
       0.005001348 0.0011370936 0.0226957 0.019532641
000040 53 9f ba 3c e4 95 57 3b 81 2a 8b 3c 8b 14 75 3c
       0.02278105 0.0032895738 0.01698804 0.014958511
000050 90 e0 87 3c a5 e4 15 3d 4f 70 1e bc 5d b7 e8 3c
       0.016586572 0.036595006 -0.009670331 0.028407747
000060 62 b6 2b 3c 02 78 0c 3d e9 3b e4 3c 9c 7b 6c 3c
       0.010480495 0.034294136 0.027860599 0.014433768
000070 46 f1 9f 3c 1b 3e 6b 3a f6 c3 bd 3c 47 0b 30 3d
       0.019524228 0.0008973793 0.02316473 0.042979505
000080 76 09 26 3c d9 86 51 3c d0 63 1b 3c 73 4c 80 3c
       0.010134092 0.012788498 0.009484246 0.015661454
000090 56 4c 1b 3c 49 63 92 3c ec 28 db 3b 42 fa f4 3c
       0.009478649 0.017869608 0.006688228 0.029904488
0000a0 70 91 51 3c c1 f0 04 3d 9b 26 46 3c c6 65 cd 3c
       0.012791023 0.032456163 0.012094165 0.025072943
0000b0 a7 60 86 3c 71 12 eb 3b 36 7b 3e bc 4e 03 6d 3c
       0.01640351 0.0071738292 -0.011626055 0.01446612
0000c0 0b 76 03 3c 0e 6c 6b 3c bd 7d 72 3c 64 9b 86 3c
       0.008023749 0.014369024 0.014800486 0.016431518
0000d0 4b 80 8d 3c a1 db 09 3b fd f0 86 3c 4b 64 53 3c
       0.017273089 0.002103545 0.016472334 0.01290233
0000e0 f6 c2 a4 3c 87 00 2a 3d fc 46 af 3c 26 26 03 3d
       0.020112496 0.04150441 0.021396153 0.032018803
0000f0 b0 ec 9d 3c 2a d4 a5 3c 1e 1c 98 3c 02 27 e0 3c
       0.0192779 0.02024277 0.018568095 0.02736235
000100 d9 ad 85 3c 00 94 d6 3c 1a 12 47 3c d6 9c a1 3c
       0.016318249 0.026193619 0.012150312 0.019728106
000110 2f b7 a6 3b 95 f7 fb 3b cc 3d 94 3c ef b5 e8 3c
       0.005087755 0.007689426 0.018095873 0.028407065
000120 d7 a5 67 3c 38 6c c1 3c 07 05 0f 3c 9d 3d 7c bc
       0.01413866 0.023611173 0.008729226 -0.015395549
000130 bc 58 df 3b 4b 5e b6 38 62 3f 1b 3b d9 27 d2 3b
       0.006815998 8.696e-05 0.0023688902 0.0064134416
000140 5a 71 bf bb aa 77 73 3c d3 bd a6 3c d9 da 5e bb
       -0.00584237 0.014860073 0.020354187 -0.0034004955
000150 b6 b4 cc 3c 0f 49 26 3c 40 17 3c 3c 85 5e 6b 3c
       0.024988513 0.010149254 0.011480153 0.014365797
000160 91 5a d0 3c c5 eb 87 3c ba 27 cd 3c 94 62 14 3d
       0.02543381 0.016591916 0.025043357 0.036226824
000170 ac 05 68 3c e3 ac 4e 3b d7 9b 5c bb 44 b8 e0 b9
       0.0141615085 0.0031536154 -0.0033662224 -0.00042861898

model/block_11_depthwise_BN/FusedBatchNormV3 f4 [144]
000000 a2 c1 78 be f4 f2 43 3f 57 5b 21 3f 10 c6 74 3e
       -0.24292615 0.7654259 0.6303 0.2390368
000010 41 8b 87 be 20 9c 5e bf 81 0f 38 bf 0d 5e 45 bf
       -0.2647343 -0.8695698 -0.7189866 -0.77096635
000020 3d 38 e7 bd bc 50 0b 3e c8 be 18 bf b7 f1 4f 3f
       -0.112900235 0.13605016 -0.5966611 0.812282
000030 37 af 8c 3e 4e 31 12 bf 9b 94 45 3d 2e 3e 6e be
       0.27477428 -0.57106483 0.048237424 -0.23265907
000040 eb e1 a7 3d 98 eb 93 3e 62 8a 80 3f d9 0c b4 3e
       0.08197387 0.2889068 1.0042231 0.35166052
000050 a2 cc d1 3c 30 45 09 3f f5 fd 39 3f 19 a3 56 3f
       0.025610272 0.53621197 0.7265313 0.8384262
000060 3d 38 62 be b9 a5 4d bf d4 04 04 3f 77 6c 80 bf
       -0.22091766 -0.80331 0.5156987 -1.0033101
000070 3a e3 f2 3e 4d e8 3d 3e 4c 5c ed 3d c7 25 e7 be
       0.47438985 0.18545647 0.1158987 -0.4514601
000080 9f 89 d2 3e c7 88 02 3e 72 26 17 3f c3 84 e3 be
       0.41120622 0.12747489 0.5904304 -0.44437227
000090 b4 38 21 3f a3 07 78 3f 02 b3 f0 be 8b 76 86 3f
       0.6297715 0.9688665 -0.47011572 1.0504926
0000a0 3d 87 25 3f cb 76 44 3f 77 66 4b bf 35 5d 5c bf
       0.6465948 0.76743764 -0.79453224 -0.8607972
0000b0 80 ef 37 bf 04 cf 45 bc 18 39 a4 3e b9 db 29 bf
       -0.71849823 -0.012073282 0.3207481 -0.66350895
0000c0 65 ca 6f 3f f3 0a 8c 3e ad 8a 62 3f f4 9d a5 be
       0.93668205 0.27352104 0.8849285 -0.3234707
0000d0 31 a8 20 be 86 66 64 bf 3b 8f e5 be a0 12 cd 3e
       -0.1568916 -0.8921894 -0.4483584 0.40053272
0000e0 27 bc f0 be 3d bb ff 3d 01 c9 2e 3f ee db 18 3d
       -0.4701855 0.12486885 0.6827546 0.037319116
0000f0 55 46 2e bf 84 bd f0 3e ed de 4a 3f d1 76 14 bf
       -0.6807607 0.4701959 0.7924641 -0.579938
000100 50 02 02 3f c5 e0 ed be 3d dd db bc 04 d0 ca be
       0.5078478 -0.46460548 -0.026838893 -0.39611828
000110 2e 7f 59 bf d8 48 cf 3e 01 66 e0 3d 42 1c 3d bf
       -0.84959686 0.40485263 0.10956956 -0.73871243
000120 d7 2b 08 3f 21 95 d2 be 4d 3d e4 3e 3c 9e 33 bf
       0.53191894 -0.411294 0.4457802 -0.7016332
000130 3e 2f 43 3f 8f 4b 32 3f 80 be 0f bf dc c8 f6 3e
       0.7624396 0.69646543 -0.56150055 0.4820012
000140 5f 15 d0 3e 9d 31 8b be dc a7 ec be c1 a2 82 3f
       0.40641305 -0.2718629 -0.46221817 1.0205919
000150 c2 b2 45 3f 38 ac 39 3f cb ec 13 bf 47 e1 3f bf
       0.7722589 0.7252841 -0.5778319 -0.7495312
000160 9a ad 50 3f 0d 5e 14 bf e0 8f ba 3e d9 06 cf 3d
       0.81514895 -0.5795601 0.36437893 0.10108728
000170 9f 2d 33 3f b5 2d 2d bf d6 80 3e 3f 35 e1 5c 3f
       0.6999149 -0.6764787 0.7441534 0.8628114
000180 f8 a4 d7 be 5a 13 61 3f c7 93 3c bf 45 b0 27 3f
       -0.4211805 0.87920153 -0.7366299 0.6550334
000190 49 2c 1e 3f c1 bb 34 3f cf db 5d bf fc ed 17 bf
       0.61786324 0.7059899 -0.86663526 -0.5934751
0001a0 16 38 f3 be 12 7f eb 3e c3 f8 b6 3e 1b b9 0f 3f
       -0.47503728 0.45995384 0.35736665 0.56141824
0001b0 78 54 77 3f bd ed ed be 0a 23 1a bc 60 c2 ef be
       0.96613264 -0.46470442 -0.009407768 -0.46827984
0001c0 8d 04 83 bd 8d 3a d6 be 2a 2b 38 bf 04 e6 fd be
       -0.06397352 -0.41841546 -0.71940863 -0.4958955
0001d0 3c bb 56 bf ee 20 a4 be 73 ae 9e 3d 64 e1 15 be
       -0.83879447 -0.32056373 0.07748117 -0.14636761
0001e0 02 e3 7a 3d 38 e7 2e bf 62 fb 07 3f cc aa 14 3f
       0.061251648 -0.6832156 0.53117955 0.58073115
0001f0 ff 05 00 3e 7a 75 1b bf 07 f2 cd be b7 8c 42 bf
       0.12502287 -0.6072613 -0.40223715 -0.75995964
000200 4e 47 12 bf e6 ce 55 3e fc 4b 58 3e 2a 11 49 bf
       -0.5714005 0.20879707 0.21122736 -0.78541815
000210 b5 9d 35 3f 0e 6a 1c bd f7 7e 24 3f c1 13 1b 3f
       0.70943767 -0.03818708 0.6425623 0.6057702
000220 6e 6e 1a be d4 70 40 bf d3 f8 2c be 9c 70 54 be
       -0.15081188 -0.7517216 -0.16891794 -0.20746082
000230 1c 4e 74 3f 0d 52 32 3f 58 f7 05 bf 62 dc 20 3f
       0.95431685 0.6965645 -0.5233054 0.6283628

model/block_11_expand_BN/FusedBatchNormV3 f4 [144]
000000 c2 80 73 3b 80 8f c3 3b 36 00 f4 3b f4 b4 32 3a
       0.0037155603 0.0059680343 0.007446314 0.0006817125
000010 bb 92 53 3a b1 8f 69 3a e2 bf ce 3b 28 2e 97 3a
       0.0008070876 0.00089096563 0.0063094953 0.0011534141
000020 fd a1 8e ba 4f d1 10 3c 58 38 b0 ba 62 aa 0d 3c
       -0.0010882017 0.008838966 -0.0013444526 0.008646579
000030 b2 b8 88 3b ca 13 12 bb 77 c5 9f 3b 64 83 ba 3a
       0.004172408 -0.0022289627 0.0048758346 0.0014229831
000040 74 1f a9 3b 37 36 0f 3c 68 55 e2 3b b0 99 30 3c
       0.00516122 0.008740953 0.006907154 0.010778829
000050 bd 35 a0 3b ae fc 31 3c fc 2c 07 bb 44 31 9c 3a
       0.0048892186 0.010863466 -0.0020626178 0.0011916538
000060 ef 15 fb 39 2d 12 ec 3b 6e 35 0b 3b 06 fa 70 ba
       0.00047890792 0.007204315 0.0021241563 -0.000919253
000070 0a 8a 97 3b 0f 61 d5 bb 05 90 8e 3b ab 36 89 3c
       0.00462461 -0.0065118144 0.0043506646 0.0167497
000080 c3 f8 97 bb bf 1a 2d 3c 9c 75 ef bb 9b 5e 12 3b
       -0.004637809 0.010565459 -0.0073077213 0.0022334221
000090 c4 f9 23 39 60 28 b2 3b 0b 54 1a ba 20 0d e7 3c
       0.00015637936 0.005436942 -0.0005887157 0.0282045
0000a0 6a 77 73 3c fc af 74 3c 69 01 e2 3a e2 02 39 bc
       0.0148600135 0.014934536 0.0017242852 -0.011292191
0000b0 b7 9d 6e 3c 8b dc 18 3c 7f 8e 00 3b e9 b1 0a 3c
       0.014563969 0.009329925 0.0019616184 0.008465269
0000c0 73 c5 6e 3c 33 83 14 bb 30 6f 37 3c 94 fc 12 bc
       0.014573443 -0.0022661209 0.011195943 -0.008971352
0000d0 84 fe 1c bc 87 eb 2a 3a 90 fa dc b9 c1 03 02 3c
       -0.009582166 0.00065200817 -0.00042148354 0.007935465
0000e0 66 18 fb 3b 9e ec e7 3b fa 35 9f 3b 71 6e c1 3b
       0.0076628206 0.0070777675 0.0048587294 0.005903058
0000f0 08 98 af 3b 0f b9 ad bb b2 c7 61 3c 1d d3 d2 ba
       0.0053586997 -0.0053016017 0.013780521 -0.0016084645
000100 00 46 eb 3b c7 f5 df 3b 40 5d 1c 3b 2f 1f 87 3a
       0.0071799755 0.006834719 0.0023859292 0.0010308976
000110 9f 25 cc 3b 9c 1e da bb 00 63 0f 3c 60 7f 9e bb
       0.0062300707 -0.006656481 0.008751631 -0.0048369616
000120 d1 8e 06 3b 21 52 a2 3b 07 d3 10 3c e1 65 1f 3a
       0.0020531903 0.004953638 0.008839375 0.000608055
000130 49 e3 94 3b 77 95 3f 3c 0a 4f ed 3a 48 d5 a4 3b
       0.004543696 0.01169335 0.001810522 0.005030308
000140 57 70 82 b9 8c 3d 5c 3b 00 7d 30 3c e8 41 38 3c
       -0.00024879232 0.003360602 0.01077199 0.011246182
000150 f9 9d 87 3b 6a 81 eb 3a ea 49 3b 3c d4 82 84 3b
       0.004138705 0.0017967646 0.011431197 0.0040439162
000160 9d 1a 4a 3c 8e e4 06 3c 8d 59 4d 3a fd 54 c2 ba
       0.012335447 0.008233203 0.00078334735 -0.0014826354
000170 6e 72 f9 3b f2 a0 6c 39 c9 d7 31 ba e9 43 c2 3a
       0.007612518 0.0002256667 -0.00067841687 0.0014821264
000180 2e f9 52 3c 7f 5b 4b ba 55 51 7f 3b 65 cd 80 b9
       0.012876792 -0.00077574694 0.003895839 -0.00024567093
000190 c5 d6 e3 3b 0c 87 d8 3b b0 51 15 3b 37 fc fd 3b
       0.0069530928 0.0066078957 0.0022784285 0.0077510136
0001a0 7e 76 93 3b 4f 60 fc 3b 03 74 9a 3b 29 4c 85 3b
       0.0045002094 0.0077019106 0.0047135367 0.004067917
0001b0 2a ae 42 3b 99 33 06 3c 49 09 4d 3c 65 54 a8 3b
       0.002970586 0.008191013 0.012514421 0.0051370137
0001c0 de a0 c2 3b f2 ff 00 3c cf 7e 3f 3c 5d d7 83 3b
       0.005939587 0.007873522 0.011687948 0.004023476
0001d0 f1 24 f0 b9 43 0f 51 3b da 99 9c 3b 87 dd ab 3a
       -0.0004580389 0.0031899966 0.0047790827 0.0013112285
0001e0 86 42 2b 3c d9 e7 48 3b 49 0c 94 3b 5b c1 80 3b
       0.010452872 0.003065577 0.004518066 0.0039293
0001f0 b4 8a 95 3b 21 57 ba 3c 89 1d f5 39 b3 2c 0d 3b
       0.004563654 0.022746624 0.00046752047 0.0021541535
000200 c4 1f d0 38 f7 35 99 ba 95 fe 23 bb fd 71 48 3c
       9.92413e-05 -0.0011689056 -0.002502357 0.012234208
000210 e3 fb 2c 3c a8 ef 0c 3c 8f a1 5f 3c c1 36 09 3c
       0.010558101 0.00860206 0.013649358 0.008374871
000220 0e 4e 58 bb 58 cb 8f 3c 57 2c c6 ba a6 24 6d bb
       -0.0033005509 0.017553017 -0.0015119415 -0.0036185174
000230 58 a6 fe 3b 8e 7c f9 3b 61 f5 2a b9 91 b1 0f bb
       0.0077712946 0.007613725 -0.00016303874 -0.0021925906

model/block_12_depthwise_BN/FusedBatchNormV3 f4 [144]
000000 e6 af de 3d 39 e6 95 3e 44 c2 15 bf f8 19 2c 3f
       0.10873394 0.29277208 -0.5849955 0.67227125
000010 ec 93 73 bf f5 5e 8d be ca 06 50 3f 32 03 2f bf
       -0.95147586 -0.2761151 0.8126036 -0.6836425
000020 17 1e cb 3e 34 10 37 bd 07 68 69 bf 45 2a 99 bc
       0.39671394 -0.044693187 -0.9117436 -0.018696913
000030 91 99 ba 3d 94 c1 f9 be 6f e3 68 bf d9 de 2c bf
       0.09111322 -0.487805 -0.90972036 -0.6752754
000040 53 1d 21 3e b5 5c 82 3e a8 f2 4c 3e 49 d8 45 3f
       0.15733843 0.25461355 0.20014441 0.7728315
000050 56 36 11 be a0 9d ab bd 00 3c d0 be 0f 02 93 bc
       -0.14180884 -0.08379674 -0.40670776 -0.017945318
000060 8d 50 4f 3e 0c 36 19 3f 5e 27 40 bf 73 a7 a5 be
       0.20245571 0.59848094 -0.7506007 -0.32354316
000070 22 e9 30 bf 97 57 1d 3f f3 42 34 3f 40 3e 48 3f
       -0.6910573 0.61461776 0.70414656 0.78219986
000080 ff 64 91 3f d0 33 d8 3d 81 b9 2d 3e 9d 0a 28 3f
       1.1358947 0.105567575 0.16965295 0.65641195
000090 ef 3e 72 bb ee f6 15 bd 4f a2 fc 3e 20 ba e6 3e
       -0.003696378 -0.036612444 0.49342582 0.45063877
0000a0 4f 32 27 3f c5 05 5c be 24 d5 4b bf 8a fa 49 3f
       0.6531114 -0.21486576 -0.796221 0.7889792
0000b0 c6 3e 8b 3e 50 86 08 3f 1e e8 3d 3f aa 1c 3e 3f
       0.2719633 0.53329945 0.7418231 0.7426249
0000c0 8d 12 95 3f 49 c6 80 be f3 36 68 bf 00 69 24 3f
       1.1646286 -0.2515128 -0.90708846 0.6422272
0000d0 11 7f 22 bf 7a ae 39 3f ed 66 22 bf 65 e9 60 bf
       -0.6347514 0.72531855 -0.634383 -0.8785613
0000e0 25 34 29 bf 31 1b 13 bf cb c1 4b bf c6 68 56 bf
       -0.6609519 -0.57463366 -0.7959258 -0.8375362
0000f0 69 17 0b 3f 7d fd a8 be a2 dc 54 3f e7 05 2e 3f
       0.54332596 -0.33005896 0.8314916 0.67977756
000100 25 2a 2f 3e 9d 39 37 3f 81 c5 14 3e 9f 79 03 be
       0.1710592 0.71572286 0.14528467 -0.12839364
000110 df 13 42 bf ec 1a 1f 3f 22 23 4a 3f ca 4a 25 3e
       -0.7581157 0.62150455 0.7895986 0.16141811
000120 a1 a2 ed 3d 75 81 4e bf ed ac 08 3f 4d 90 f7 3e
       0.116032846 -0.80666286 0.53388864 0.4835228
000130 f1 9e 3d bf 75 0e 13 bf 0e df c5 be 2c 09 7f 3f
       -0.7407065 -0.57443935 -0.3864674 0.9962337
000140 cc a7 58 bf c1 93 8c be 14 08 4d be 84 ed 35 3f
       -0.8463104 -0.27456477 -0.20022613 0.71065545
000150 43 4a 11 3f 2a 3b a7 3e 46 79 59 bf 98 6f 31 bf
       0.5675394 0.32662326 -0.84950674 -0.69310904
000160 c1 01 b4 3e 71 1f 78 bf d1 ba 6a 3e 05 c0 95 3f
       0.35157588 -0.96922976 0.22922827 1.1699225
000170 f2 78 ee be a3 23 fd 3e e5 20 2e 3f ad 63 15 3f
       -0.4657665 0.4944125 0.68018943 0.5835522
000180 41 00 30 3f 04 17 8a 3f 8f 14 15 bf c8 18 51 bf
       0.6875039 1.0788274 -0.58234495 -0.8167844
000190 1d e9 b8 be 36 2a 0e 3d 26 93 74 3f 6a c2 3b 3f
       -0.3611535 0.034708224 0.9553703 0.7334353
0001a0 a8 11 0a 3f d5 7c 51 3f 9a 36 b2 be 50 b3 de be
       0.5393319 0.81831104 -0.34807283 -0.4349618
0001b0 4a cf 5c bf b6 c0 14 be 88 24 da be ed d3 62 3f
       -0.862538 -0.14526638 -0.42605996 0.88604623
0001c0 03 44 ae be b0 e2 05 be 42 74 a4 3e 49 86 9a bd
       -0.34036264 -0.13074756 0.32119948 -0.07545144
0001d0 c9 a6 7a bf 8b 5e 0d bf 77 28 12 bf 27 1b 71 3f
       -0.97910744 -0.55222386 -0.57092994 0.94182056
0001e0 2a 49 62 3f bc 80 0d bf 04 88 09 bf 31 e9 33 bf
       0.8839289 -0.5527456 -0.5372317 -0.70277697
0001f0 0e 26 bb be 56 18 93 be af 8a 1d bf 37 f8 35 3e
       -0.3655247 -0.28729504 -0.6153974 0.17770468
000200 d6 d0 0f bf 84 70 9f 3a 3b 90 a1 3e 72 91 8e be
       -0.56178033 0.001216427 0.31555352 -0.2784534
000210 5c 5a 38 bf 50 d4 8e 3e 00 0e 10 3f f0 a6 cf be
       -0.7201288 0.27896357 0.5627136 -0.4055705
000220 0c 7e 5e bf 9c 24 34 bf 4b 93 9f 3e c7 80 32 3f
       -0.8691108 -0.7036836 0.31167063 0.6972775
000230 79 9f 24 be 53 64 42 bf d0 95 39 3f a7 fa 4f 3f
       -0.16076459 -0.7593433 0.7249422 0.8124184

model/block_12_expand_BN/FusedBatchNormV3 f4 [144]
000000 89 83 13 3b 92 95 8f 3b 91 a6 b7 3b 09 bc d2 3b
       0.002250882 0.004381844 0.005604573 0.006431107
000010 13 df 08 3c d5 c3 ae ba 74 97 12 3c c1 4b ed 3b
       0.008353966 -0.0013333509 0.008947242 0.0072416966
000020 fd cc 11 3c f4 1a 6d 3a c8 ac 10 3c dc e5 66 ba
       0.008898971 0.0009044849 0.008830257 -0.00088080554
000030 1f a1 18 3b 70 5b 26 3b 0d b9 3b 3b 78 54 22 3b
       0.0023289395 0.002538409 0.0028644234 0.0024769586
000040 a0 76 16 3c 21 56 0d bb 0e e0 a2 3b b2 05 8d bb
       0.009183556 -0.002156623 0.004970557 -0.0043036574
000050 c5 c2 dc 3b 92 a7 06 3b d6 f0 58 3b 26 79 4f 3b
       0.0067370855 0.0020546657 0.0033102534 0.0031657903
000060 f7 09 27 3c 8b 3c 29 3b fd a4 f4 3a 7a 33 7a 3a
       0.010195247 0.002582344 0.0018664893 0.0009544414
000070 74 2b b9 3a a3 7d 0a 3c 6b 2e 47 bb 2d 57 23 3c
       0.001412733 0.008452806 -0.0030392657 0.009969515
000080 dc ea 86 3c af fc b4 3b 86 32 33 3b 50 60 4c 3b
       0.016469412 0.0055232863 0.0027343347 0.0031185336
000090 4c 32 eb b9 6f a5 b7 3a aa d1 77 bb fd da 96 ba
       -0.00044860167 0.0014011095 -0.0037814179 -0.0011509355
0000a0 1a 9c fa 3b 99 7a ed 3a aa d9 65 3b 35 7b 16 3c
       0.0076480033 0.0018118202 0.0035072365 0.009184648
0000b0 52 86 62 3b 75 46 ae 39 cb a5 53 3b 18 1e 3b 3b
       0.0034564924 0.0003324036 0.0032294865 0.0028551873
0000c0 2d cf 5b 3b 98 5e e4 3b 60 f8 cd 3b cb dc 31 bb
       0.0033540234 0.0069692843 0.006285712 -0.002713966
0000d0 e9 57 a8 3a ee e3 03 3c 65 20 19 bb 51 f9 f7 ba
       0.0012843582 0.008049948 -0.0023365256 -0.0018918907
0000e0 90 4a 72 bb a1 51 47 ba c5 3e 03 3b 2a 4a 4c ba
       -0.0036970712 -0.0007603411 0.0020026427 -0.0007793034
0000f0 18 09 ac 3b 0f b8 19 bb 35 0d 88 3b 84 5d a0 3a
       0.0052501075 -0.0023455655 0.004151965 0.0012234901
000100 3a 79 12 bb 81 f1 1f 3a 88 ba f5 3b 62 94 af 3b
       -0.0022350089 0.00061013555 0.007499043 0.005358265
000110 b5 da db b8 fa 20 69 bb ed ce 1b b9 f4 1f 2d b9
       -0.00010483471 -0.0035572634 -0.00014859038 -0.00016510469
000120 d6 63 fe 3b c9 6e 25 b9 2a 06 d9 3a bc 8d 31 bb
       0.007763366 -0.00015776897 0.0016557623 -0.0027092537
000130 ed 5b c6 3b 68 b3 d8 3b cb d6 5a ba 52 de 0f 3b
       0.006053439 0.0066131838 -0.00083480467 0.0021952582
000140 e2 bc 68 bb c3 1d c3 3a d1 53 24 3c 00 2b 03 3c
       -0.0035512974 0.0014886189 0.010029749 0.0080058575
000150 a6 dc 6c 3a bd 68 f2 3b b5 46 eb 3b 0d 46 ac 3b
       0.0009035565 0.0073977397 0.00718006 0.005257374
000160 05 b1 23 bb c8 9c 64 bc 36 7f d1 3a 09 d2 58 3c
       -0.0024977338 -0.013953395 0.0015983346 0.01323367
000170 9d f2 84 3a b6 91 01 3c 76 1c 45 3b d7 e5 3c 3b
       0.0010143105 0.007908275 0.0030076778 0.0028823519
000180 fa 2a 50 ba d3 87 18 3b 15 62 95 3b c2 87 09 3c
       -0.00079409743 0.0023274317 0.0045588114 0.008394184
000190 a8 b2 80 3b eb 9c 86 3b ef 56 33 3c 6d 37 4e ba
       0.0039275475 0.0041080615 0.01094602 -0.00078665355
0001a0 a6 1d fc 3b 7f 20 76 3b 0c 8b d7 3b 30 20 a8 ba
       0.007693964 0.003755599 0.006577855 -0.0012826975
0001b0 7b 4c a3 bb 08 a9 ba 3b 30 04 98 3a fd 9d 76 3a
       -0.0049834824 0.0056964196 0.0011597928 0.00094076974
0001c0 3e cd 97 3a cb 1b 5e 3a d1 57 a4 3b 47 62 a2 3b
       0.0011581553 0.00084727694 0.0050153513 0.004955563
0001d0 f6 b6 1b 3c e0 be 8a 3b 7f c1 69 3c 26 db 54 3a
       0.0095040705 0.00423418 0.0142673245 0.0008119814
0001e0 8c 3e cf 3b 55 26 5b 3c d2 86 1c 3c c8 50 23 3b
       0.006324595 0.013375838 0.009553628 0.0024919976
0001f0 f4 e0 37 3b a0 9d c2 3a 22 23 01 3b 99 0c ca 3b
       0.0028057666 0.0014848001 0.0019704779 0.0061660525
000200 a4 28 cb 39 a7 f9 26 bb b7 4d 83 3b c9 e0 51 bb
       0.00038749457 -0.0025478394 0.004007067 -0.0032024852
000210 4d 6c a0 ba 0a 2b b9 3a 18 70 1f bc a9 78 b5 bb
       -0.0012239307 0.0014127207 -0.009731315 -0.0055380655
000220 cc 8a 9a 3b e7 87 92 3b 91 51 47 3c a5 c7 ad b8
       0.004716253 0.004471767 0.012165443 -8.2864695e-05
000230 eb 59 87 3b d4 3f 9f 3b ea b2 d2 ba 6d 55 bc b9
       0.004130592 0.004859904 -0.0016075049 -0.00035921801

model/block_13_depthwise_BN/FusedBatchNormV3 f4 [144]
000000 e4 cf 25 be 16 1c 1e bf ac 75 38 bf 97 c8 a5 3e
       -0.16192585 -0.61761606 -0.72054553 0.323796
000010 92 53 18 3e 43 22 b3 be ed 4e 2c bf 2a 0d 35 3f
       0.1487563 -0.34987077 -0.6730793 0.7072321
000020 77 c0 3e 3f f4 94 3b bf a3 89 61 3f 55 de 67 bf
       0.7451243 -0.7327416 0.8810064 -0.90573627
000030 07 99 70 3f d5 b9 5b bf 79 9a 2a 3f fe 16 c3 be
       0.939835 -0.8583043 0.66641957 -0.3810348
000040 b1 d8 93 3e f4 c1 0e 3f 20 52 66 bf 90 f7 7d 3f
       0.2887626 0.557647 -0.8996906 0.99205875
000050 0f e4 32 3f 8b 7a 10 bf 80 0b 5c 3f a9 bf 78 bf
       0.6987924 -0.56436986 0.8595505 -0.9716745
000060 d3 d5 7d 3f 48 69 13 be f3 f9 26 3f 04 65 4a 3f
       0.99154395 -0.1439563 0.6522514 0.7906039
000070 de 5d 10 bf 0b 5f 05 be 1a 7c dd be 9d 05 41 3f
       -0.5639323 -0.13024537 -0.43258744 0.7539919
000080 16 b7 45 bf ab b3 88 bf 0c e7 37 bf 44 9e 2b bf
       -0.7723249 -1.067983 -0.71836925 -0.6703837
000090 0d ad 3b bf e3 29 2a bf 1d c5 6b bf a3 24 25 3e
       -0.7331093 -0.66470164 -0.92097646 0.16127257
0000a0 5b 5b 61 3f 21 9f 0b bf 3a 01 6e 3f 9f 8b eb be
       0.8803002 -0.54539686 0.9297062 -0.4600496
0000b0 3f 03 79 3f 08 17 69 3f fa 1c 4f 3f dc c3 42 bf
       0.9727058 0.9105077 0.8090359 -0.7608011
0000c0 75 95 38 bf b2 20 09 bf 24 3b f7 3e dc 10 f5 3e
       -0.72103053 -0.53565514 0.48287308 0.47864425
0000d0 79 5b 3e bf 1d d8 4b 3f 1d 66 38 bf 35 58 30 3f
       -0.74358326 0.7962664 -0.7203081 0.68884593
0000e0 24 dd 28 bf c2 b0 34 bf 10 0c 6a bf 3b 0e 68 bf
       -0.65962434 -0.7058221 -0.91424656 -0.90646714
0000f0 02 58 22 3f f0 59 41 bf 36 40 06 bf 5b f7 5f bf
       0.6341554 -0.7552786 -0.5244173 -0.8748681
000100 f5 a2 08 bf 12 58 60 bf 62 21 de 3e 3f bf 6a bf
       -0.5337365 -0.87634385 0.43384844 -0.9169807
000110 6f 48 52 bf 58 7c 5a 3f 5b bd 29 bf a8 4f 14 bd
       -0.82141775 0.85345984 -0.6630456 -0.03620878
000120 d3 d6 50 3f 93 b2 69 3f a0 a5 37 bf 4e 79 2f 3f
       0.81577796 0.9128811 -0.717371 0.6854447
000130 19 f5 5c 3f 59 7b d7 3e 75 38 bd 3e 6c 8a 07 3f
       0.8631149 0.42086294 0.36957136 0.5294559
000140 2e e1 28 3f 08 62 1b 3f eb 91 4d bf 6a ae 5f bf
       0.65968597 0.6069646 -0.8030078 -0.8737551
000150 fc c5 4b 3f 23 89 5d bf 58 04 42 bf 6f 5b 5a bf
       0.79598975 -0.8653738 -0.7578788 -0.85295767
000160 8e 8b 18 bf 65 5d 56 bf 88 10 e1 3e 8a 6b 34 bf
       -0.59587944 -0.8373626 0.43957925 -0.7047659
000170 35 b2 57 bf 34 76 57 bf 21 e3 70 3f 92 8e fc be
       -0.842563 -0.8416474 0.9409657 -0.49327523
000180 14 a7 47 bf 09 0e 1c 3f 97 a1 41 3f 76 46 30 bf
       -0.77989316 0.60958916 0.7563719 -0.68857515
000190 62 d6 5b bf 18 9c cd be b7 cf 40 3e 33 5f 7a bf
       -0.85874 -0.40158153 0.18829237 -0.9780151
0001a0 88 ce 63 3f 64 ce 3d bf 69 21 64 bf 95 f8 1e bf
       0.88987017 -0.7414305 -0.8911348 -0.62098056
0001b0 96 02 c3 be 35 ef 47 bf ac 28 26 bf 17 b1 81 3f
       -0.3808791 -0.78099376 -0.6490581 1.0132169
0001c0 51 b1 3b bf f5 7b 27 bf e2 b6 74 bf 71 38 07 3f
       -0.7331744 -0.6542352 -0.9559156 0.528205
0001d0 8b 1e f0 3e ce e1 84 3f a6 d5 ec bd 49 07 45 3f
       0.46898302 1.038141 -0.11564188 0.7696424
0001e0 37 ab 61 bf 2f c2 10 3f dc c7 df be bf 0e 2c 3f
       -0.8815188 0.565463 -0.43707168 0.6721
0001f0 ea 30 2e bf f8 5b 43 bf 7f 69 6c 3f 98 d2 a7 bd
       -0.68043387 -0.7631221 0.92348474 -0.081944644
000200 7a a4 6d 3f 66 7c 61 bf 4c e0 4c bf ba 58 29 bf
       0.92829096 -0.8808044 -0.8002975 -0.6615101
000210 1a 23 22 bf 26 91 33 bf 38 28 19 bf 5a fe 2f 3f
       -0.6333481 -0.70143354 -0.59826994 0.68747485
000220 61 34 f0 3e ca c0 8a 3f 57 83 39 bf 77 0a e9 bd
       0.46914962 1.0840085 -0.72466034 -0.11378949
000230 cc c8 49 bf 6d 72 3b 3f fb c3 2f bf 0a 95 06 bd
       -0.78822017 0.73221475 -0.6865842 -0.03285698

model/block_13_expand_BN/FusedBatchNormV3 f4 [144]
000000 7f f3 b4 3b a9 63 a9 3b a1 39 e5 3b 1c 13 10 3c
       0.005522191 0.005169351 0.0069953953 0.0087936185
000010 45 5f a9 3a 50 cc f2 ba c3 ee 9b 3b 6e d9 85 3b
       0.0012922069 -0.0018524025 0.004758687 0.0040847575
000020 43 9f 45 3c dd 37 54 b7 95 d4 95 ba 2c 1f 74 ba
       0.012061897 -1.2649191e-05 -0.0011431152 -0.00093125063
000030 b1 3b 2c 3b 62 d8 95 bc e7 48 10 3a dc a8 db 3b
       0.0026280696 -0.018291656 0.00055040274 0.006703479
000040 47 61 1a bb f6 de 6b 3a 96 ab 2f 3b cf 8d e1 3b
       -0.0023556517 0.00089977623 0.0026805154 0.00688336
000050 68 9c 77 3a 21 7b 0d 3c a2 00 dd 3b b4 d9 d6 3c
       0.00094456086 0.008635313 0.00674446 0.026226856
000060 8c 7e 86 bb 42 db 8c 3b 6c 2e dd 3a 45 b5 82 3c
       -0.004104441 0.0042985985 0.0016874797 0.015955577
000070 13 64 19 3c cf e3 d6 3b b3 48 b5 3c ec 07 b1 3b
       0.009362238 0.0065579186 0.022129392 0.0054025557
000080 95 07 d1 3b 8a da 95 3c cf 45 8d 3b 4c f0 41 3a
       0.0063790777 0.018292684 0.0043113003 0.0007398173
000090 31 bc 6d 3b eb d9 26 3c 78 df 10 3c d0 fd 04 3c
       0.00362755 0.010183792 0.008842342 0.008117154
0000a0 ae c7 85 3b b0 6d f8 ba 55 27 64 3c ea db 00 3c
       0.0040826416 -0.0018953588 0.013925393 0.007864932
0000b0 a5 db 01 3c 81 88 40 bc fa 7f 52 3c d4 96 d0 b9
       0.0079259025 -0.011751295 0.012847895 -0.00039785227
0000c0 b5 86 cb bb 3a c0 50 3c cb 83 a5 3a 61 95 65 3c
       -0.0062111267 0.012741143 0.0012627778 0.0140126655
0000d0 45 4d 09 3c d4 ff 79 3b 4b f6 26 bb cf f2 cf bb
       0.008380239 0.003814687 -0.0025476392 -0.0063460837
0000e0 c5 be db ba 23 55 70 3b af 88 99 3c 90 7b 76 3c
       -0.0016765228 0.003667184 0.018741934 0.015044108
0000f0 23 ac a7 bb 46 75 b2 b9 6f ba 66 3c 24 35 9e 3a
       -0.005116956 -0.0003403818 0.014082535 0.001207028
000100 4d 55 9f bb f7 f0 81 bc a0 91 38 bb b6 32 8b 3c
       -0.0048624636 -0.015861971 -0.002816297 0.016991954
000110 e9 b2 6e b9 ad 3c 99 ba d8 e1 05 3c 46 33 6c 3a
       -0.00022764098 -0.0011691056 0.008171521 0.0009010326
000120 57 7c 1d 3c c7 39 1b 3c e0 f6 61 3c d0 ca ab 3b
       0.009612164 0.009474224 0.01379177 0.005242683
000130 8e 3f 28 3c 40 06 01 bc 1b 52 ef 3a 97 62 09 3c
       0.010269059 -0.007875025 0.0018258722 0.008385322
000140 53 0c 3a 3b 06 48 d4 3b f7 3c 2c 3c f9 69 8c 3b
       0.0028388693 0.0064783124 0.010512582 0.004285094
000150 27 ce 37 3c 8d 77 8f 3b ee de 64 3b 2b b1 67 3b
       0.011218584 0.0043782652 0.0034922916 0.0035353403
000160 23 fc 13 bb 3c ae 06 3c 8a f3 01 bc e9 60 86 bb
       -0.0022580705 0.008220252 -0.007931599 -0.004100908
000170 00 f9 4b 3c 47 23 08 3c 99 34 f0 3c f5 66 61 3b
       0.012449503 0.008309192 0.029321956 0.0034393643
000180 e7 b8 28 3b 61 70 3b 3a be f3 ee 3b 53 52 3f 3c
       0.0025744976 0.00071502296 0.00729224 0.0116773425
000190 b5 e3 2a bc 45 76 d5 bb c4 88 10 bc 89 f7 71 3b
       -0.010430266 -0.006514343 -0.00882167 0.0036921224
0001a0 d1 36 c7 39 21 84 c3 3b db a3 15 bc e1 74 94 bb
       0.0003799708 0.0059666787 -0.0091333045 -0.0045305346
0001b0 51 ff 84 3c 70 e4 a2 3b 7e c3 45 bc 5a 99 8d 3b
       0.016235026 0.0049710795 -0.012070535 0.0043212594
0001c0 db ae 26 3c 6c a0 3e 3a fb ef 9b bb 19 6f e9 bb
       0.010173525 0.00072718295 -0.0047588325 -0.0071238396
0001d0 22 b3 cb 3b f6 b9 bf 3c d0 35 78 3b 11 ce 80 3b
       0.0062164227 0.023404103 0.0037873872 0.003930815
0001e0 1a 3e 33 3c b5 c3 ff 3b 0c 49 35 bb 1f 45 05 bc
       0.010940099 0.0078053125 -0.0027661948 -0.0081341555
0001f0 c6 06 ff bb c6 06 1f 3c f1 38 4a 3c 29 bc 0a 3b
       -0.00778279 0.009706205 0.012342677 0.002116928
000200 33 8f 1e 3b a8 c0 50 3c 56 b6 67 b9 cb 82 cc 3b
       0.002419424 0.012741245 -0.00022097802 0.0062411777
000210 70 cc a0 bb e9 84 bc 3b 09 d0 09 3b a9 18 16 3b
       -0.0049071833 0.005753149 0.002102854 0.0022902882
000220 a3 bc 34 ba 2a 2c 71 3c 83 cd cc 3b 57 d5 e0 3b
       -0.0006894564 0.014720002 0.006250085 0.0068613696
000230 33 9d 19 3b e4 bd 57 3c ed fb 84 3c 22 6d 18 3c
       0.0023439645 0.013167832 0.016233409 0.009303363

model/block_14_depthwise_BN/FusedBatchNormV3 f4 [240]
000000 b2 d6 3c bd b2 5a bb be c9 b9 54 bf f3 33 33 3f
       -0.046103187 -0.36592633 -0.83095986 0.70001143
000010 2b 6c 13 bd f5 ea 9e 3e 8a dc fa 3d ef 5f c5 bd
       -0.03599183 0.31038633 0.12249096 -0.096374385
000020 c5 5c ca 3e 96 a8 ae 3e ca 4d 59 3f cd 9b f2 3e
       0.39523903 0.34112996 0.8488432 0.47384492
000030 62 40 11 3f 60 b5 30 3e d9 87 a9 3d 60 5e 92 be
       0.56738865 0.17256689 0.08277864 -0.28587627
000040 3e 5c 45 bd 16 e3 e0 3d c4 dd e9 3e 64 5a 8e 3d
       -0.048183672 0.10980813 0.45677006 0.069508344
000050 fa 6d 86 3b d8 f9 30 3f dd 1d 1e bf d2 0b 1b 3f
       0.0041024657 0.6913123 -0.6176432 0.6056491
000060 7e 6e 3d bf 36 8b e0 bc 72 e3 3e 3f b7 d1 67 3e
       -0.7399672 -0.027410131 0.74565804 0.22638594
000070 7c 0b 2a 3f 32 2c 66 bf 34 53 9b 3e fd 1c 08 bf
       0.66423774 -0.89911187 0.30336916 -0.5316923
000080 a6 92 33 bc 33 56 39 bd a0 5d 4c be b1 d0 51 be
       -0.010960257 -0.04524822 -0.1995759 -0.20489766
000090 11 24 f6 be 76 55 30 bf b5 79 39 bf f7 84 2c 3d
       -0.4807439 -0.68880403 -0.72451335 0.042118993
0000a0 38 9b cc 3e 1f 4e 4b be 8c c0 8e bd 05 8b 4d 3e
       0.39962173 -0.1985402 -0.06970319 0.20072563
0000b0 c6 eb 22 3f c9 24 c9 be 38 b5 e7 3e ff 92 02 3f
       0.6364101 -0.39285877 0.45255446 0.5100555
0000c0 62 2e 04 3f 18 08 41 3c 1a 72 69 3f 6c 82 da 3e
       0.51633275 0.011781715 0.9118973 0.4267763
0000d0 56 ed 4b 3f f2 f7 c8 3e b3 cb 26 3f b5 85 52 bf
       0.7965902 0.39251667 0.6515457 -0.8223527
0000e0 e8 bf c2 3d ba f1 24 bf 9a 59 36 3e c2 b9 33 3f
       0.095092595 -0.64431345 0.17807618 0.7020532
0000f0 5a 1f 0a bf 00 a8 0b bf 95 81 d2 be 42 a7 83 bf
       -0.5395409 -0.5455322 -0.41114488 -1.0285418
000100 53 d3 89 be ac 9b e1 3e d4 cc 2f bb de e4 a9 be
       -0.2691904 0.4406408 -0.0026824968 -0.33182424
000110 d5 86 0b 3f 9f d5 e7 3e 46 7c 4a be f9 80 9f be
       0.5450261 0.45280167 -0.19773969 -0.31153086
000120 82 14 30 3d 5f a3 62 3f 05 6f 1d 3f 59 b2 68 3f
       0.042988308 0.88530535 0.6149753 0.90897137
000130 f0 b8 89 bf eb c7 98 be 61 c5 66 be c4 dd 58 3f
       -1.0759563 -0.29840025 -0.22536232 0.8471339
000140 c9 ad 9c be 17 f1 11 3f 6e c6 65 3d c9 b1 27 3f
       -0.30601338 0.570085 0.05609744 0.65505654
000150 5a 91 1b 3f 72 3e 5b bf a3 19 16 3e de f6 94 bb
       0.60768664 -0.8564216 0.14658217 -0.0045460304
000160 fd 68 39 be 95 b2 4d be 25 59 98 3e f6 4f 5e 3d
       -0.18106456 -0.20087655 0.29755512 0.054275475
000170 34 a0 ed 3e 8c 67 54 3e a0 f6 fb 3d c0 dd 1c 3f
       0.46411288 0.20742625 0.12302899 0.61275864
000180 ea e3 18 be 76 98 06 bf d2 6f f9 bd 27 d5 55 3e
       -0.14930692 -0.52576387 -0.12179531 0.20882092
000190 0f c9 fd be 56 dc 03 bd a2 f6 5c be da 14 35 bf
       -0.49567458 -0.03219255 -0.21578458 -0.7073494
0001a0 bf 3e b0 bd 4b bf 1f bf 53 3d 16 bf 31 db 82 3f
       -0.08605718 -0.62401265 -0.58687323 1.0223142
0001b0 a1 8c 39 bd 49 60 30 bf 20 54 78 3e 82 8d 1e bf
       -0.04530013 -0.6889692 0.24250841 -0.61934674
0001c0 1a 7a a9 3e 15 06 dd be 2e fd 90 be 49 99 3d 3f
       0.3310097 -0.43168703 -0.2831816 0.7406202
0001d0 11 73 ae 3e 1f 8f 27 be 3d bc 84 3e 24 d7 1f bf
       0.34072164 -0.1636319 0.25924864 -0.62437654
0001e0 83 0d 2b 3f 53 a3 a6 3e 28 53 08 be aa d1 1c bf
       0.6681749 0.32546481 -0.13312972 -0.6125742
0001f0 ff 5b ec 3e dc 35 0c 3f cb 4f 66 3e 52 03 13 be
       0.46163937 0.5476968 0.22491376 -0.14356735
000200 77 9b 2e 3f 28 49 df bc f6 c5 6f be 2f 5c 2a 3f
       0.6820597 -0.027256563 -0.2341536 0.6654691
000210 2c f9 6a bf c8 39 aa bd d4 a5 c8 bd 52 db 10 3e
       -0.91786456 -0.08311802 -0.09797254 0.14146164
000220 ba c8 df 3a f6 9e 6a bf 91 21 c2 3e f9 28 1f 3f
       0.0017073371 -0.91648805 0.37916234 0.62171894
000230 41 f2 59 bf 40 79 2d bf 68 fc 27 3f 9b f0 17 be
       -0.85135275 -0.6776314 0.65619516 -0.14837877
000240 a9 c5 65 3d ef 36 8c bd ff 42 be be 0a ee ca be
       0.056096707 -0.06846415 -0.3716049 -0.39634734
000250 60 ae 64 3d a3 62 db be 47 be 00 3f 2d b7 2e 3e
       0.05583036 -0.4284869 0.5029034 0.17062064
000260 3e 74 ec bd a4 a6 11 3f 6f 05 3f bf d3 ba 1a be
       -0.11545609 0.568949 -0.74617666 -0.1511033
000270 34 c8 25 be b3 ec cc bd 5c b1 83 3f 66 99 27 3e
       -0.16189653 -0.10006084 1.0288501 0.1636711
000280 56 b3 12 be 6e c7 6e 3e 99 96 71 bf 8a 7e b5 be
       -0.14326224 0.23318264 -0.9437042 -0.35448104
000290 bc ef df 3d 34 de 3e bf 50 15 ef be 51 8c 4a 3e
       0.109343976 -0.74557805 -0.46695948 0.19780089
0002a0 fe 62 ba 3e 06 f3 0b 3f 74 19 ac 3e f7 d2 37 bf
       0.3640365 0.546677 0.3361317 -0.7180628
0002b0 ca f4 73 3d a9 37 3d be 5d cb 0a be 2f 78 01 3f
       0.05955962 -0.18478264 -0.1355414 0.5057401
0002c0 9a 9b 26 3f 6e 14 54 3b ac dc c9 be 53 68 49 bf
       0.6508118 0.003236081 -0.39426172 -0.7867481
0002d0 45 1d d3 3c 7b cb 4d 3f bc 31 1f bf 31 ad 31 3f
       0.025770793 0.8038861 -0.62185264 0.69404894
0002e0 fa ab d7 3e 48 9f 3f 3f df 71 a0 be 32 9a fa 3e
       0.42123395 0.7485242 -0.31336877 0.48945767
0002f0 40 fd 61 3d dc 65 07 bf 5a 1e 58 be 6a 01 c0 bd
       0.05517316 -0.528898 -0.21105328 -0.0937527
000300 db 62 4e bc be e8 59 3f 10 e7 18 3f ef 23 f5 be
       -0.012596811 0.8512076 0.59727573 -0.47878978
000310 f3 f4 27 bf ac 3a aa bc b1 57 b3 be 06 c1 24 3f
       -0.6560814 -0.02077993 -0.3502784 0.6435703
000320 19 72 f6 bd 13 45 51 3f 57 1d c1 be d4 d8 49 bd
       -0.12033481 0.81746024 -0.37717697 -0.04927905
000330 95 87 79 3e c4 18 51 bf 91 f0 1c 3f ab a5 84 bc
       0.24368127 -0.81678414 0.61304575 -0.016192278
000340 15 cf 4d bf 8f df 5a bd 5e cf f5 3d d8 4f a3 3c
       -0.8039411 -0.05343586 0.12002443 0.019935533
000350 75 47 10 3f d5 92 e4 3e b4 d3 9c 3e f3 55 10 bf
       0.56359035 0.44643274 0.30630267 -0.5638115
000360 49 8b 69 3e b7 81 1c 3f 8d 44 47 3f 92 e7 55 3f
       0.2280704 0.6113543 0.77838975 0.83556473
000370 cd 66 1d 3e a3 fb 8c be 5b 06 ff 3e 69 69 61 3f
       0.15371247 -0.27535734 0.49809536 0.8805147
000380 83 11 36 bf 23 37 27 3f a4 08 51 3e 2c 9c 98 be
       -0.7112047 0.65318507 0.20413452 -0.2980665
000390 25 11 59 3e cc d0 d7 be d4 fc 7c 3f 59 b5 09 bf
       0.21197946 -0.42151487 0.98823285 -0.5379234
0003a0 55 b8 68 3f f2 35 03 bf 14 e4 60 bf 1b c2 a1 3e
       0.9090627 -0.5125419 -0.8784802 0.31593403
0003b0 04 c1 c2 be 4e 96 1b 3f f4 f8 2c 3f 50 36 05 3e
       -0.38037884 0.6077622 0.6756737 0.13009

model/block_14_expand_BN/FusedBatchNormV3 f4 [240]
000000 83 9e d5 3a 11 ba ac 3b 82 80 37 3b ab 7e 5a 39
       0.001629785 0.0052712043 0.002800018 0.00020837288
000010 8f 3c 55 3c 50 6c b5 3b f1 ac 35 b7 78 10 ac 3b
       0.013014927 0.0055365935 -1.0828707e-05 0.0052509867
000020 00 60 0b 3b 38 cb 21 39 e3 a8 eb 3b 70 b5 92 bb
       0.0021266937 0.00015429861 0.0071917637 -0.0044771954
000030 d5 ae 1c 3c 7b 99 5f 3b b3 bf 8c ba 1f 5b e3 3b
       0.009563168 0.003411858 -0.0010738283 0.0069383527
000040 9c cd 60 3b aa 2c c9 ba 13 3b 88 3b ba bf f5 3b
       0.003430224 -0.0015348394 0.004157433 0.007499662
000050 71 b5 96 ba 68 1e 3b 3c 3c 5a e3 3a 73 0a 83 3b
       -0.0011498166 0.011420824 0.0017345618 0.0039990484
000060 21 41 e1 3b 23 68 74 3b 29 1f d3 3a 34 43 1f 3b
       0.006874219 0.0037293516 0.0016107309 0.002430153
000070 7f eb 9e 3b 01 92 fd 3a ba a5 cd bb 81 00 5e 3b
       0.0048498507 0.0019345881 -0.0062758597 0.0033874812
000080 f2 ac be 3a ba b5 8a bb 05 38 1d 3b d5 91 ba 3b
       0.0014547391 -0.0042330893 0.002398969 0.005693654
000090 9c c1 b0 3b cc d3 db bb 98 3d eb 3a ef 54 12 39
       0.005394174 -0.0067085978 0.0017947434 0.00013955285
0000a0 ef 84 7f 3b 03 70 12 3a 36 47 c8 3b 51 c6 1b 3c
       0.0038989147 0.0005586149 0.0061120046 0.009507732
0000b0 57 42 b2 3b 39 90 d0 3a 87 fe 61 bb 3b 36 26 bb
       0.005440037 0.0015912122 -0.0034483986 -0.0025361914
0000c0 a7 aa 5f bb 30 26 05 bb 12 ab ae b9 29 d4 25 b9
       -0.0034128816 -0.002031695 -0.00033315324 -0.00015814662
0000d0 fb ba 29 3b 8c 69 9d 3b bd a1 ff b9 5e bc a7 3b
       0.0025898803 0.004803842 -0.00048757895 0.0051188907
0000e0 d8 be 7e 3b 9b 34 a7 3b b1 7d 12 3b 4a 04 92 bb
       0.0038871076 0.0051027066 0.002235275 -0.0044560777
0000f0 fa 07 96 3c 55 fe 45 bb ba bb 75 3a 6d 85 1c 3b
       0.01831435 -0.0030211408 0.0009373982 0.002388324
000100 81 dc 55 3a 77 62 c5 3b 22 e4 67 3a 0c 05 99 3b
       0.0008158163 0.006023701 0.0008845945 0.004669791
000110 4c eb b7 3b 91 c7 e4 3b b7 d2 01 3c 71 50 62 3b
       0.0056127664 0.006981798 0.0079237735 0.003453281
000120 6d 85 bc 3a 1e 92 01 bb 9e 0e ac 3b 76 af 44 3c
       0.0014383026 -0.001977093 0.005250766 0.012004724
000130 1f 36 cc 3a 63 5f c2 3b 0c 72 92 3b 94 c8 1b bb
       0.0015580094 0.005931781 0.004469162 -0.0023770677
000140 6e b3 68 3b d9 fc b2 3a 8b 65 50 3a 6d 06 73 3b
       0.003550734 0.0013655677 0.00079497014 0.0037082687
000150 25 1f a4 bb 13 0b 14 3a 9c 0d 98 3b 04 64 eb 3a
       -0.0050085955 0.0005647402 0.0046402942 0.0017958884
000160 b8 12 ba ba 0a 46 1b 3c 66 8f a6 ba 15 ca 81 bb
       -0.0014196252 0.009477148 -0.0012707531 -0.0039608576
000170 ae 58 0a 3b a8 4a 82 3c 8f 8e 43 3a 43 81 08 3b
       0.0021109986 0.01590474 0.00074599026 0.0020829
000180 bf 30 52 3b 1f c8 d9 3b 70 47 8b 3b f0 ad 47 bb
       0.0032072512 0.0066461707 0.0042504594 -0.0030468665
000190 42 41 2c 3c ba 19 0f 3c ab c0 6a 3b 90 a6 b5 3b
       0.010513606 0.008734161 0.0035820405 0.0055435374
0001a0 59 0b 90 3b 81 a6 42 3b 8a 9f ab 3b c0 3f e8 3b
       0.004395884 0.0029701295 0.0052375244 0.0070876777
0001b0 1f fc d3 3a c4 49 1d bc c0 c6 03 3b 1c 59 45 bb
       0.001617316 -0.009600107 0.0020107478 -0.0030112928
0001c0 4e 08 94 ba 22 43 c1 3a ec fa 8f 3b bb 4d 32 bb
       -0.0011293979 0.0014744739 0.004393926 -0.0027206976
0001d0 81 a9 73 3c e1 f0 6c 3b 0d 75 59 b8 fc 0c b5 bb
       0.014871956 0.0036154317 -5.1845844e-05 -0.0055252295
0001e0 3d 85 62 3a 0c 3f a0 ba d0 20 9c ba ed e0 49 3a
       0.000864107 -0.0012225821 -0.0011911634 0.0007701058
0001f0 a6 72 4a ba ed db 58 3c 09 6c fb 3a 6e 7b ce 39
       -0.00077227724 0.013236028 0.0019181977 0.00039383344
000200 00 50 1d 3b 80 f7 ca 3b 75 67 0d bb ba bb d2 3b
       0.0024003983 0.006194055 -0.0021576558 0.00643107
000210 17 c8 f1 ba 89 8f d1 ba 58 ad 48 3b e5 2a 12 3c
       -0.0018446472 -0.0015988211 0.00306209 0.00892136
000220 ac b2 07 3b 6b 23 25 3c b0 d0 ab 3b 51 de 90 3a
       0.0020705862 0.010079245 0.0052433833 0.0011052584
000230 9e 50 23 3c 12 f2 57 3b 13 da 1b 39 33 16 54 bb
       0.009967951 0.0032950682 0.00014863191 -0.0032361865
000240 68 36 72 3b b0 02 97 3b 9b 94 43 3c db 25 a6 3a
       0.0036958698 0.0046084747 0.011937286 0.0012676077
000250 4f a4 0c bb 06 a8 c5 3b 66 82 82 3c b1 32 7b bb
       -0.002146024 0.006031993 0.01593132 -0.0038329775
000260 f3 a9 ed 3a 45 33 c7 3a 12 08 f8 3b ba 18 fe 3b
       0.0018132314 0.0015197775 0.0075693214 0.0077544125
000270 55 bf e5 ba 8a aa f9 3a 3b e1 1b 3c 9d de 18 3b
       -0.0017528335 0.0019048017 0.009514148 0.0023326047
000280 f8 f8 0e 3b 7f 97 c7 ba 4f e0 df 3b 47 12 00 bb
       0.0021815877 -0.0015227644 0.0068321596 -0.0019542144
000290 72 20 7c 3a 81 f8 4d 3b b3 2b 18 3c d2 47 45 3b
       0.0009617872 0.0031428637 0.009287762 0.0030102623
0002a0 61 53 38 3b e8 b9 dd 3b cc 6d 02 bb 66 39 ff 3b
       0.002812587 0.0067665465 -0.001990187 0.007788825
0002b0 e7 f9 21 3a 20 18 32 b9 8a ec 87 ba 24 b0 c7 ba
       0.0006178901 -0.0001698439 -0.0010370177 -0.0015234989
0002c0 60 12 d3 3b 23 16 64 3b 9e 22 29 3c c2 be 00 bc
       0.0064413995 0.0034803234 0.010323195 -0.00785798
0002d0 28 35 93 3a 83 a2 eb 39 ec b8 0c 3b 0c 29 26 3b
       0.0011231052 0.00044943774 0.0021472527 0.0025354056
0002e0 ee e5 35 ba cd 43 10 3c 9a db 5a 3b 2a 38 e5 3b
       -0.0006938864 0.0088052275 0.0033395053 0.0069952207
0002f0 22 e0 36 3b fa 6e 82 3b 01 20 04 b9 6f 50 69 3b
       0.002790459 0.0039805146 -0.00012600423 0.003560092
000300 4e 90 a9 3b 1a 6d a5 b9 1d 56 b3 3b 6d f0 c2 ba
       0.005174673 -0.0003155254 0.005472912 -0.0014872678
000310 c1 2b f9 ba ba 8d dd 39 c6 4f 46 bb ee aa 15 3a
       -0.0019010232 0.00042258 -0.003025995 0.00057093694
000320 43 e4 41 3b 7e 0c 28 3c 06 0e fd 3b b1 b8 01 3a
       0.0029585517 0.010256885 0.007722619 0.00049484806
000330 c2 a0 80 3b ee 92 d4 b9 88 8f 75 3b 4f 1c 43 3b
       0.003925414 -0.00040545262 0.0037469584 0.0029771512
000340 fd 5d 2a bb 81 32 ad bb a9 5b 8d 3b 14 d3 71 3b
       -0.0025995963 -0.0052855616 0.0043139053 0.0036899494
000350 a2 24 8c bb f3 50 a3 39 e5 01 da 3a 43 fc 2b 3c
       -0.004276828 0.00031150095 0.0016632645 0.010497156
000360 a2 d3 bd 3b f4 fd 2a 3b 5d 6f 3d 3b 6b 59 c6 3b
       0.005793051 0.002609131 0.002890549 0.00605314
000370 d8 4b 86 3b 18 f5 8a 3b f3 9c 8c 3b 73 67 70 b9
       0.0040983967 0.0042406432 0.0042911707 -0.00022926721
000380 55 16 81 3b e4 c7 5d 3a 09 9d 50 3b 8c 23 89 3b
       0.0039394298 0.0008460267 0.0031831881 0.0041851457
000390 33 22 55 3b 91 6e b7 39 68 80 a4 3b 22 73 7c 3b
       0.0032521605 0.00034986858 0.00502019 0.0038520773
0003a0 60 a5 06 bb bc 8b 22 bc f4 bb 03 3c 12 4d 92 3b
       -0.0020545349 -0.009921011 0.008040417 0.004464754
0003b0 31 a3 4a 3b ab b2 a8 3b 7e af 6f bb ea 42 c0 3b
       0.0030920024 0.005148252 -0.0036573107 0.005867352
